pytorch/signlanguage.onnx (onnx, 227536 bytes, 12 tensors)

conv1.weight f4 [6, 1, 3, 3]
000000 cb ab f8 3d 8e 0a bf be 79 f7 f8 be 06 3b 42 be
       0.12142142 -0.3731274 -0.48626307 -0.18967828
000010 d0 c4 8b be fe ef ea be 1a 91 92 3d f9 b6 40 be
       -0.27298594 -0.45886225 0.07156582 -0.18819799
000020 5f 5e 3a 3e 46 35 25 3e 81 c1 a2 be ec 30 db 3e
       0.18200062 0.16133603 -0.31788257 0.42810762
000030 80 77 d1 be c0 02 47 bf 80 a5 a4 3d cf 46 35 be
       -0.40911484 -0.7773857 0.08039379 -0.17702793
000040 29 c9 f5 bd 3e fc 65 3f 69 cc 05 3f 28 27 75 3e
       -0.12001259 0.89838016 0.5226503 0.23940718
000050 28 51 77 3e d8 b8 27 be 43 63 90 3e 4a 88 e0 bd
       0.24152052 -0.16379106 0.2820073 -0.10963495
000060 08 3a 13 3e 67 de 8f be 71 d0 2b bf ae 4d 9d be
       0.14377606 -0.28099367 -0.6711493 -0.30723327
000070 bc 22 c4 be 9a f9 15 3e 03 24 34 bd 8f 72 67 3b
       -0.3830775 0.14645997 -0.043979656 0.0035316085
000080 91 73 94 be 57 52 a7 3e d7 e0 e4 3e c2 6e 96 3e
       -0.2899442 0.32680008 0.4470279 0.29381377
000090 52 9d 5f be 2d a8 e6 3d 12 a4 5c bd 7e 35 78 3e
       -0.21837357 0.11262546 -0.053867407 0.24239156
0000a0 4d 4d 53 3e db ab 85 3e a7 f0 63 3e bc 8e b5 3e
       0.20634957 0.26107678 0.2225977 0.3546046
0000b0 01 7f 99 3c 05 71 95 3f 02 41 8d be 3e 79 7c bf
       0.018737318 1.1675116 -0.2758866 -0.986225
0000c0 f9 9d 5f 3f b7 15 31 bf 3c 2e 2e bf f2 29 68 3f
       0.8735042 -0.6917376 -0.680393 0.90689003
0000d0 e6 68 17 bf 25 93 0f be
       -0.5914444 -0.14020975

conv1.bias f4 [6]
000000 ca 95 11 bd b9 7e 3c 3e f6 38 c2 3e 67 58 81 be
       -0.03554324 0.18407716 0.37934083 -0.25262758
000010 62 e0 8c be 1c e2 8d 3e
       -0.2751494 0.2771157

conv2.weight f4 [6, 6, 3, 3]
000000 25 a5 0b 3e dc 6e 09 3e d3 ea 35 3b 56 0e 24 be
       0.13637216 0.13421196 0.0027758374 -0.16021094
000010 0d a0 04 be 6d e2 18 3d 59 0e 3b be ec 78 50 3c
       -0.1295168 0.03732531 -0.18267192 0.0127241425
000020 46 81 af 3d a6 c4 b5 3e d1 1c 46 3d 9a 3d 41 be
       0.08569579 0.35501593 0.048367325 -0.18871155
000030 f1 cd 09 3d 1d 1f b4 bb c1 31 5e be 96 88 32 3e
       0.033643667 -0.005496873 -0.21698667 0.17434916
000040 9f f7 ac 3b e6 8f 9f be 53 45 92 be d8 42 86 be
       0.005278542 -0.31164473 -0.28568515 -0.26222873
000050 75 da 9d be 8e 3e 30 be bf 99 25 3e e9 a8 dc 3d
       -0.30830732 -0.17211363 0.1617193 0.107744046
000060 df 6e be 3d ad a2 71 3e 67 4e 66 3e a1 c3 a4 bd
       0.09298491 0.23597212 0.22490846 -0.08045126
000070 a0 48 72 3e 04 a1 6c 3e 94 96 8e 3d 63 84 6c 3e
       0.23660517 0.23108298 0.06962314 0.23097377
000080 30 86 50 bd 7a 31 7e 3d 00 56 dc bc c0 cb bd 3c
       -0.05090922 0.062058903 -0.026896477 0.023168445
000090 c4 55 1d bd f7 a4 44 3e c4 94 bc 3e cc 95 29 3b
       -0.03841187 0.19203554 0.3683225 0.002587664
0000a0 1e a4 a2 3e f6 4e 8d 3e a3 17 02 3e 8b 29 56 3e
       0.31765836 0.27599305 0.12704329 0.20914285
0000b0 88 09 8f 3e c6 7e 37 be 92 91 3b be 4e b5 86 be
       0.2793696 -0.17919454 -0.1831725 -0.263102
0000c0 99 b9 5f be fc e1 d2 bd f6 a5 7a bd 77 e5 45 3c
       -0.21848144 -0.10297009 -0.06119343 0.012078634
0000d0 0d 0e 88 3e a2 e2 c9 bd db 50 7b ba ad 32 10 be
       0.2657322 -0.0985768 -0.00095869385 -0.14081831
0000e0 84 8e 0d be 22 dc 19 be be 9b 58 3c 13 08 51 be
       -0.13823897 -0.1502538 0.013220726 -0.20413236
0000f0 f9 db 7c bc ad fb e2 bd 1d 33 24 be 90 47 81 bc
       -0.015433305 -0.110831596 -0.16035123 -0.015781194
000100 75 d8 ac 3d c0 34 94 3d fe 1b ff bd 36 7f b8 3d
       0.084397234 0.07236624 -0.12456511 0.090086386
000110 13 30 8b bd 54 d7 8c 3d 18 a0 34 be fb 1a f4 bd
       -0.06796279 0.06877008 -0.17639196 -0.119192086
000120 ef 6a 62 bd e6 d0 b4 3d 76 ca 04 be c4 c6 03 3d
       -0.05527776 0.08828907 -0.12967858 0.03217198
000130 27 f7 4f bd 82 f5 d0 3c 5e 21 1f ba a1 2c 08 3d
       -0.050772812 0.025507692 -0.0006070341 0.033245686
000140 fd 0d ac 3a 8b 42 4c 3c 91 d0 18 bc f8 15 e2 bd
       0.0013126727 0.012467037 -0.00932707 -0.110393465
000150 97 0a ee bd 7a 16 64 bc 46 c2 4f bd 5f 1d 03 bd
       -0.116231136 -0.013921374 -0.050722383 -0.032010432
000160 b2 f1 7b bd 94 d9 e4 3c 7f 74 49 bd 7c 7e 08 3c
       -0.061509795 0.02793578 -0.049183365 0.0083309375
000170 05 ee 33 be 41 26 3e 3d 03 71 5a bd 56 b9 dd bd
       -0.17571266 0.0464232 -0.053330433 -0.10826366
000180 33 33 61 3e a6 7a 92 3d 71 4c 6d bc 88 32 68 3e
       0.21992187 0.071522996 -0.014483557 0.22675526
000190 7a 2d 6f 3e 0f fc a8 be 48 fb 5b be 18 77 b5 3e
       0.23357192 -0.33004805 -0.21482575 0.35442424
0001a0 2a a1 97 be c2 58 46 be 29 ee 98 3e 69 b9 a3 be
       -0.29615146 -0.19369796 0.29869202 -0.31977394
0001b0 11 65 9a 3d 6d 5a 1d 3e 3d 29 0c 3e 6b 28 9c bd
       0.07538808 0.15366526 0.13687606 -0.076248966
0001c0 0e 67 af 3d d7 47 14 3e c8 33 ad bd 35 fd c4 3e
       0.08564578 0.1448053 -0.08457142 0.38474432
0001d0 4d d3 3a 3e 17 40 55 bd 9d 72 80 be 1c 81 30 3e
       0.18244667 -0.052063074 -0.25087443 0.17236751
0001e0 38 46 68 bd 58 ce 1f be 93 62 37 3e f8 ab ed 3d
       -0.05670759 -0.15606058 0.17908697 0.11605066
0001f0 5e 73 9a 3e b4 f6 2e 3e ff 5b 68 3e e0 30 c0 3e
       0.30166143 0.17086297 0.22691344 0.3753729
000200 b0 12 49 3b 3d 7e 79 3e c8 3a 4b bd 66 10 c6 bd
       0.0030681305 0.24364562 -0.049616605 -0.096710965
000210 d8 7d 3b bd 6d 94 99 be 38 ad cf be 59 10 21 be
       -0.04577431 -0.29996052 -0.40561843 -0.15728892
000220 95 09 91 bd 2d 4d 07 3d 05 87 3a be 99 60 5f bc
       -0.07081906 0.033032585 -0.18215568 -0.0136338705
000230 3c c9 cb bd b8 16 83 3e a4 9f 63 3e 1a da 40 3e
       -0.09950492 0.2560327 0.22228867 0.18833199
000240 e5 4e 51 3e 17 04 36 be 66 1c b1 bd e1 0a 99 3b
       0.20440252 -0.17774998 -0.08647995 0.0046704863
000250 cc fc 31 be 0a 45 df bd 55 c3 e9 3d 29 35 ed bc
       -0.1738159 -0.1090184 0.1141421 -0.028956013
000260 e9 fe 47 3e c0 56 40 3e ab 32 9e 3e 7b 2f 95 3e
       0.19530834 0.18783092 0.30898032 0.29137787
000270 ff a8 89 3e 96 f4 9c 3e c5 0e b6 3d 90 7f a0 3e
       0.26886746 0.30655354 0.08889536 0.31347322
000280 b3 60 b7 3c 7b 34 46 be e3 ac 02 3c 84 10 3e 3e
       0.022384977 -0.19355957 0.00797579 0.18560988
000290 80 60 8f 3d 9c f1 ba bd 6c c9 a7 3c f2 e3 72 3d
       0.07000828 -0.091281146 0.020481788 0.059299417
0002a0 d6 82 26 3c 75 15 3a be 18 47 03 be 5d 87 7e bd
       0.01016303 -0.18172248 -0.12820089 -0.06214081
0002b0 05 e6 f9 bd 41 d8 82 3d 6f ba 7b bd 73 c0 09 3d
       -0.12202076 0.063889034 -0.061457094 0.0336308
0002c0 cd b3 88 bc 09 f4 84 be 25 44 83 be 1c 02 15 be
       -0.016687298 -0.25967434 -0.25637928 -0.14551586
0002d0 d8 09 82 bd 06 45 2a be bc 6b 38 be 4a 9f 36 be
       -0.06349534 -0.16627893 -0.18009847 -0.17834201
0002e0 76 91 3e be de 8a 9d bd 48 08 9a bd 1e 3d 94 bd
       -0.18610176 -0.076925024 -0.07521111 -0.0723822
0002f0 79 dc 33 be c1 b3 96 bc 57 8c f8 3d be c7 c9 bc
       -0.17564572 -0.01839626 0.12136143 -0.024631377
000300 8c 76 39 3e 30 f4 2b 3e 54 21 bf bd 3f fb 0f 3e
       0.18111628 0.16792369 -0.09332529 0.14060687
000310 ca c2 46 bc b9 bd 88 bd 26 96 bb bd 7a 67 23 be
       -0.012131402 -0.06676812 -0.09159498 -0.15957442
000320 38 e6 8e be e3 a2 71 3e 9f 75 c3 3d dd 8c e5 b9
       -0.27910018 0.23597293 0.09543919 -0.00043783235
000330 15 a2 c3 3d 84 ce 85 3e 6b 60 30 3e 46 1d 89 3e
       0.09552399 0.2613412 0.1722428 0.26780146
000340 cf 66 4d 3d d7 f6 64 be c4 02 a1 ba 69 83 89 3e
       0.050146874 -0.22359787 -0.0012284149 0.2685807
000350 d1 9e 1d be ab b5 77 bd b7 8e a0 3e 38 3f 2a bd
       -0.15392615 -0.060475986 0.31358883 -0.041564196
000360 8e 29 13 3c 20 f2 80 3e 47 7a 99 3e b3 11 b4 be
       0.008982075 0.25184727 0.29976103 -0.35169753
000370 ce e2 43 3c 12 4e 87 3d 54 84 c4 be 23 1a 46 be
       0.01195593 0.066066876 -0.38382208 -0.19345908
000380 b5 94 a2 bd 66 36 cc bd 11 05 af be b6 50 4e 3e
       -0.0793852 -0.09971313 -0.34183553 0.20147976
000390 ab 30 33 3c 54 16 06 be 99 17 81 3e a0 8d a1 bd
       0.010936896 -0.13094455 0.25213316 -0.07888341
0003a0 b3 a1 e4 bc 70 b3 15 3e 00 d9 5c 3e e9 0a a9 3d
       -0.027909135 0.14619231 0.21567154 0.08254034
0003b0 40 da d8 bb dc 39 e2 ba 91 6a 02 bd a8 6c 96 be
       -0.0066178143 -0.0017259675 -0.03183991 -0.29379773
0003c0 d9 44 1b 3d bc 4e 99 3d 68 a9 52 be 56 dc d8 3d
       0.037907455 0.074857205 -0.20572436 0.10588901
0003d0 bc 52 51 be 9a ad 94 bd 69 58 9a 3d 31 81 bc 3d
       -0.20441717 -0.07259674 0.07536394 0.09204329
0003e0 e3 c0 be 3d d1 8e 95 3d f6 2c 8c 3d 40 51 05 3e
       0.09314134 0.07302631 0.06844513 0.13019276
0003f0 27 3f 26 3d 42 79 60 be 2f 05 e6 be f9 b1 10 3e
       0.04058757 -0.21921256 -0.4492583 0.14130391

conv2.bias f4 [6]
000000 81 6f d1 3e 56 36 f3 3d e2 5d 51 be 58 37 66 bc
       0.40905383 0.11875598 -0.2044597 -0.014051281
000010 d7 93 92 3d c5 44 d1 3e
       0.071571045 0.4087278

conv3.weight f4 [16, 6, 3, 3]
000000 99 6e dc be 43 ed 96 be 08 c2 7c be 66 dc 01 be
       -0.4305313 -0.2947789 -0.24683392 -0.12681732
000010 fe 1c de 3b b1 eb 92 3e b2 df 22 bd 81 30 35 3e
       0.0067783585 0.28695443 -0.039764114 0.17694284
000020 f4 a9 cb 3e 5f 39 1e bd 44 6c 89 3d 3a 85 73 3d
       0.397781 -0.038628932 0.06710103 0.059453227
000030 30 6f ad bd d2 ae 92 bd d4 af 2c 3d 12 f5 80 3d
       -0.08468473 -0.071622506 0.04215987 0.062967435
000040 56 3c 57 bd f2 e7 1f be a5 fd e5 3e d4 60 70 3f
       -0.052547775 -0.15615824 0.44920078 0.9389775
000050 91 f7 50 3f a8 e7 cc be 41 48 bd be 78 35 c9 be
       0.81627756 -0.4002049 -0.36969188 -0.39298606
000060 bc e5 24 bf 39 f2 6b bf 91 c3 23 bf ea 9e 93 3c
       -0.64413047 -0.9216648 -0.63970286 0.018020112
000070 ac f4 b7 3d ca fd 89 3d ce f4 1a 3e 46 e7 a7 3d
       0.08982214 0.067378595 0.15132448 0.08198409
000080 02 49 34 3d 78 a9 9e 3d 59 de fd bc 74 52 9c bd
       0.04401494 0.07747167 -0.030989813 -0.07632914
000090 75 34 a2 3e 99 30 ca 3e e8 52 00 3e ee 12 83 3d
       0.31680647 0.39490202 0.12531626 0.06400095
0000a0 d0 17 0a 3d 20 25 bb bd 58 1d cd be 22 a5 29 bf
       0.033714116 -0.091379404 -0.4006145 -0.662676
0000b0 52 29 81 be 03 a3 4b 3e 8b 47 cd 3e d9 16 56 3f
       -0.25226837 0.19886403 0.40093645 0.8362861
0000c0 cf 90 dd 3b 33 5b 90 be 4e 65 7b be 68 66 9a be
       0.0067616473 -0.2819458 -0.24550363 -0.30156255
0000d0 1e 50 e1 be 48 dd f4 be a3 e6 78 bd 2c 88 f1 bd
       -0.44006437 -0.47825074 -0.060766827 -0.11793551
0000e0 b9 fb 34 3e e5 b0 ec 3d f9 31 5e be 00 6d 61 be
       0.1767415 0.115571775 -0.2169875 -0.22014236
0000f0 74 f6 9b 3e fc 7d 70 bd df 23 53 bc d4 9e 4f bd
       0.30461466 -0.058713898 -0.01288697 -0.05068858
000100 6e a6 bb 3d fd 2d 86 3d bd 1e 29 be 47 82 e8 3d
       0.09162603 0.0655174 -0.16515632 0.113529734
000110 0c dd 53 3e ac e2 72 be 56 79 ec bd 04 71 91 3e
       0.20689791 -0.23719281 -0.115465805 0.28406537
000120 14 40 20 be f5 10 e0 3e 84 c4 02 bf 9f eb eb be
       -0.15649444 0.43762937 -0.5108111 -0.46078202
000130 2d c6 a6 3e 11 77 f3 3c db 01 1a bf ef 04 b1 be
       0.3257307 0.029719861 -0.6015908 -0.34574077
000140 a8 5f 57 bd 35 3f f2 3d ec e5 aa 3e f0 6e c5 bc
       -0.05258146 0.11828462 0.3337854 -0.02410075
000150 79 03 7c bd 0d 00 5a 3d 69 43 91 3e 98 ad d6 bd
       -0.06152675 0.053222705 0.28371742 -0.10482329
000160 f7 1b 4a bc 17 9d 2d 3d 63 a5 0e 3f 9a 5a d2 bd
       -0.012335769 0.04238614 0.5572111 -0.10271187
000170 84 e8 1e bf 32 dd 8d bd 26 cf d8 3e 1d d5 d4 be
       -0.6207354 -0.06926955 0.42345542 -0.41568843
000180 15 66 f4 be b9 7c cd 3e d2 57 75 be 3a 3f 00 bf
       -0.47734132 0.40134218 -0.23959282 -0.50096476
000190 32 e3 d3 3e c7 82 53 3e 25 22 cc be 65 d1 07 be
       0.41384274 0.20655356 -0.398698 -0.13263471
0001a0 05 e0 a5 3e 78 fd 37 3e f4 83 ed be 88 d2 a2 3e
       0.32397476 0.17967784 -0.46389735 0.31801248
0001b0 f4 6c 2a 3c 7a f3 fc 3c ab 50 b8 3d 8d 99 08 be
       0.010401953 0.030877817 0.08999761 -0.13339825
0001c0 23 1c 0a be c9 07 81 bd 51 df ee 3d dd 69 af bc
       -0.13487296 -0.06300313 0.11663688 -0.021412784
0001d0 2b 19 a0 3b c4 77 ad bd 66 fc cd bd c5 2f bd bd
       0.0048858128 -0.08470109 -0.10057907 -0.09237627
0001e0 f8 47 19 bd f9 6d ba bc 52 29 78 bc 83 c7 8e 3d
       -0.03742215 -0.022757517 -0.01514657 0.069716476
0001f0 2c 07 33 3d 0a 66 b0 3d ed 2a b0 3d eb 6c af bc
       0.04370801 0.086132124 0.086019374 -0.02141424
000200 a3 4a 16 bd c8 54 27 3a 98 85 92 bd ae da ac bd
       -0.036692273 0.0006383178 -0.07154387 -0.08440147
000210 67 2b ec bd 67 4c a5 3d 06 21 99 bc 9c 75 85 bd
       -0.11531716 0.08071213 -0.018692505 -0.06516573
000220 31 bf fb 3d 12 1e 0e bd 27 27 a1 bd 31 af 07 bd
       0.12292326 -0.034696646 -0.07868796 -0.03312606
000230 04 dc 24 bd a5 9e ab bd 96 49 92 3d 69 d8 60 3d
       -0.040248886 -0.083798684 0.07142942 0.054893885
000240 99 e3 f2 bd 80 46 b4 bd 89 e0 00 be 4a 4a c4 bd
       -0.11859817 -0.08802509 -0.12585653 -0.09584482
000250 01 58 cf bd 40 8a 24 bd 75 3a 9e bd ea eb 5f 3c
       -0.10124207 -0.040170908 -0.077259935 0.013667086
000260 1b d3 22 bd e4 c0 dd 3c ee d2 08 3c c9 61 fe bd
       -0.039752107 0.027069516 0.008351071 -0.12420995
000270 45 f6 ee bd 52 1d b1 bc 50 dd a4 bd d7 15 98 3d
       -0.11668066 -0.021620426 -0.080500245 0.074260406
000280 1f 68 03 3c ac 42 85 bd 9b c5 3a be 2c af 6f 3e
       0.00802043 -0.06506857 -0.18239443 0.23406667
000290 8a c6 b8 3e d0 28 42 3e 7f 36 7a 3e 50 25 b9 bc
       0.36088973 0.18960881 0.24434851 -0.0226008
0002a0 9d d4 bb 3e bf 75 17 be 0e 67 3a be 2c 63 00 be
       0.3668565 -0.1479101 -0.18203375 -0.12537831
0002b0 d5 e2 92 bc 71 32 48 3d 98 94 06 3e d3 7a 43 3d
       -0.017930428 0.04887623 0.13142622 0.047724556
0002c0 bb f7 11 be be 3e b2 bc ae 12 1c 3d 4f dc f3 3d
       -0.14254658 -0.021758433 0.03810375 0.11907255
0002d0 73 b7 9e 3e 88 74 e9 3d 20 33 f6 bd 5d 06 02 bc
       0.30999336 0.1139918 -0.1202147 -0.007936087
0002e0 8c 3c 91 be d2 ab 68 3d 5e 06 12 bf 1d 9f 00 be
       -0.28366506 0.056804486 -0.57040966 -0.12560697
0002f0 8b 15 8a be ff ce 9f 3d df 88 24 3d c9 6c c6 3c
       -0.2696956 0.07803153 0.040169593 0.024221795
000300 85 bd 03 3d 20 df a4 bd 0c 58 48 be 84 69 87 bc
       0.03216316 -0.0805037 -0.19564837 -0.016529806
000310 bf 93 97 3d b9 77 3d bc b6 9e 79 3e 16 03 f0 bd
       0.07401227 -0.011564189 0.2437695 -0.117193386
000320 7d c9 e5 3d b0 4d 76 bc d8 ac 65 be 9a 5c 3f be
       0.112200715 -0.015033171 -0.22429216 -0.18687668
000330 35 14 3f bd 0b 07 53 be 81 ae 4a be f7 16 16 bd
       -0.04665013 -0.20608155 -0.1979313 -0.036642995
000340 aa 21 c9 3e ae c7 b2 bc 3f d8 75 bd 20 91 6c bd
       0.39283496 -0.02182373 -0.06002068 -0.05775559
000350 23 e4 cc bd e1 2d 9e be fa 13 78 be 54 40 27 3d
       -0.10004451 -0.30894378 -0.2422637 0.040832832
000360 69 07 85 3e 9d 50 4a be 08 8d 55 be fc c8 04 3e
       0.25982216 -0.19757314 -0.2085458 0.12967294
000370 63 2d ff bc 17 19 0e be b4 3b ce bd 98 33 b5 3d
       -0.031149572 -0.13876759 -0.10069981 0.08847731
000380 4d 79 f6 3c 37 f7 27 3d fd ec 44 3e be be b4 3c
       0.030087138 0.041007247 0.19231029 0.02206361
000390 f8 30 12 3e 9e 45 f2 3d 7d b1 78 bc 39 9d 45 3e
       0.14276493 0.11829685 -0.015179035 0.19298257
0003a0 4a 89 92 3c 18 2c cc 3d 24 8b 94 bf 50 d7 19 3f
       0.01788773 0.09969348 -1.1604962 0.60094166
0003b0 90 6c 21 3e 51 66 88 be 24 99 e8 3e 03 24 8f be
       0.1576407 -0.2664056 0.45429337 -0.27957162
0003c0 d5 e5 96 3e 76 cc 01 be 7d a2 1a bf 00 89 93 bd
       0.29472223 -0.12675652 -0.6040419 -0.07203865
0003d0 6b 4c 25 3c 56 c8 f0 3d 35 eb 60 bd bf 65 46 3e
       0.01008902 0.11756961 -0.05491181 0.1937475
0003e0 ef c0 5d be fa 38 ea 3b f3 31 3b be e0 18 4d be
       -0.2165563 0.0071479054 -0.18280773 -0.2002902
0003f0 c6 f1 17 bf 6a 20 e6 3e c4 a8 88 be 99 ea c7 3d
       -0.5935329 0.44946605 -0.26691258 0.09761543

conv3.bias f4 [16]
000000 e4 f4 2b 3e 7b 1a db bd 07 5f 8c bc d7 15 0a be
       0.16792637 -0.1069841 -0.017135156 -0.13484894
000010 18 13 6e bd 81 71 95 bd ac f8 87 3c 49 35 b2 be
       -0.058123678 -0.0729704 0.016598068 -0.34806278
000020 fa 1a 07 be df c0 d7 3d b7 a9 2f 3d d5 88 a3 be
       -0.13193884 0.10534834 0.042886462 -0.31940332
000030 ed d2 f7 3c b8 50 b6 be 01 ea 6e be e1 13 c5 be
       0.030251944 -0.3560846 -0.23331453 -0.3849173

fc1.weight f4 [120, 400]
000000 24 ed d8 bc 88 e3 a0 3c 3e ae 81 3e 06 f8 0a 3e
       -0.026480265 0.019639745 0.2532825 0.13571176
000010 f5 5a 38 3d 47 d1 eb bd a1 b8 60 3d 12 5e 93 3e
       0.04500862 -0.11514526 0.054863576 0.28782707
000020 95 a9 61 3e 33 4f 5d 3e 37 76 f9 bd c9 6a 4b be
       0.22037347 0.21612243 -0.12180751 -0.19864954
000030 5c 94 cd 3d ff 05 6b 3e ea 6e e0 bc d8 5a 60 bd
       0.10038063 0.22951506 -0.027396638 -0.054774135
000040 4a 12 1e bd 41 e5 b0 bd 99 28 05 3d 3a e4 b0 3c
       -0.03859166 -0.08637477 0.03250942 0.021593202
000050 12 2d 54 be 7f 5c 17 be a6 78 45 be 24 ab 9f bd
       -0.20720318 -0.14781378 -0.19284305 -0.07796314
000060 29 bb ec bd 61 3a 60 bc 95 05 a7 3c c3 5b b4 3a
       -0.115591355 -0.013685794 0.020388404 0.0013760257
000070 f6 ef 8f 3d 62 6a 12 bd d7 5c d1 bc 8c dd f0 bd
       0.07028191 -0.035745986 -0.025556965 -0.11761007
000080 d7 fe da bd 1a 9f b2 3d a8 ba 1f 3e 05 25 41 bd
       -0.10693138 0.087217525 0.15598547 -0.047154445
000090 b3 7d 7b 3d 58 6c ed bb 88 de 25 3d 62 81 09 3e
       0.061399173 -0.0072455816 0.040495425 0.13428262
0000a0 92 3b 71 bd 4b 92 15 bd f6 c2 1c bc 85 8f 8c bd
       -0.0588947 -0.03651647 -0.009567967 -0.06863312
0000b0 34 09 22 be 53 88 19 bd a2 75 42 be 11 7a 8c bd
       -0.15823823 -0.037483525 -0.18990186 -0.0685922
0000c0 76 b2 ed bd 8b a7 53 bd 67 a1 10 bc 58 cb c7 bc
       -0.11606304 -0.051673453 -0.008827544 -0.024388954
0000d0 c0 4a b0 3c b0 03 10 bd ba ab f0 3c 0b 32 de 3c
       0.021520019 -0.035159767 0.02937876 0.027123472
0000e0 2a 5e 20 bd 39 b4 44 bc e5 25 35 3b e7 cf 38 3c
       -0.0391523 -0.012005859 0.0027640995 0.0112800365
0000f0 de 69 e0 bc 61 f4 3b bd 2d 50 f7 3c b6 4e 94 3c
       -0.027394231 -0.045887355 0.030189598 0.018103939
000100 b2 de c8 3c 6f af 3a bd 3a 8f 8d bc 3e a8 17 bd
       0.024520252 -0.045577463 -0.01728021 -0.037025683
000110 89 30 31 3d e0 27 e6 3c 80 28 08 bc 5a 56 97 bc
       0.043259177 0.028095186 -0.008310437 -0.018473793
000120 a8 68 49 bd 38 9d 13 bc 56 25 01 bd e5 bd 84 bd
       -0.049172074 -0.009009652 -0.031529747 -0.06481532
000130 64 9f ac bd b0 bc eb bb 48 d2 2a 3a e7 13 4d 3d
       -0.08428839 -0.007194124 0.00065163197 0.05006781
000140 2e ce 72 bd 21 b3 0e bd 2c 13 d2 bb 4c f4 e9 3b
       -0.05927866 -0.0348388 -0.006410977 0.007139718
000150 1a c0 b0 3d 18 52 a7 bd ba 64 67 bc 91 94 6e bd
       0.086303905 -0.08169955 -0.014123136 -0.058247153
000160 c7 0a c0 3d 9f 0c 21 3d 2e ea 84 bd eb a0 38 bd
       0.093770556 0.039318677 -0.06489979 -0.04507534
000170 b3 f3 00 3b f1 3b e3 3b e7 b2 2e 3d ab 5d 0d be
       0.0019676506 0.006934636 0.042651083 -0.13805263
000180 36 fb 6e bd b4 c8 c3 bd 0e 65 6c bc cf 5d 2a bd
       -0.058345042 -0.095597655 -0.01442839 -0.04159337
000190 6b 14 3e bd 40 60 da 3c 21 26 bf 3c 78 c8 80 3b
       -0.04640619 0.026657224 0.023333611 0.0039301477
0001a0 3f 3e af 3d 70 e1 5f bd d8 1c d1 3d 35 19 21 3d
       0.085567944 -0.054658353 0.1021058 0.03933068
0001b0 86 d0 13 3e b9 9a 47 bb b8 ba b4 bc 72 f5 3e bd
       0.14435014 -0.0030457212 -0.02206169 -0.046620794
0001c0 54 1d 03 be 5f aa b7 3d 85 5f ef bc 61 15 92 bc
       -0.12804157 0.089680426 -0.029220352 -0.01783246
0001d0 c5 10 e1 bb c7 f0 d2 bd 03 6e 8a bd 1e b2 67 3d
       -0.006868454 -0.10299831 -0.06759264 0.05656635
0001e0 e0 3b 94 3b fc 06 80 3c 4a f4 f9 bc 7d f6 50 bd
       0.004523739 0.01562833 -0.030511994 -0.05101632
0001f0 5f d7 9c bd 9b f1 ed bb 33 33 38 bd e5 a8 8a bc
       -0.07658266 -0.0072614676 -0.044970702 -0.016926238
000200 34 de 0d bd 7d eb d2 bc 95 e3 52 3c 22 82 2c 3d
       -0.034635738 -0.025747055 0.012871643 0.04211629
000210 88 13 26 3d 53 98 df bc 42 e8 bd bc 20 08 84 3c
       0.04054597 -0.027294314 -0.023182038 0.016117156
000220 d8 71 c2 3c c2 73 da 3c 52 1a 90 3c 27 fc e6 bc
       0.023735926 0.026666526 0.017590676 -0.028196407
000230 c6 e6 0b bd af 67 cb 3c 0b b9 1d 3d d9 f7 19 bd
       -0.03415563 0.024829714 0.03850655 -0.03758988
000240 10 5f 53 bc 0c f8 ca 3c a6 68 3b bb 29 a3 0e bd
       -0.012901083 0.024776481 -0.002859631 -0.03482357
000250 64 8d bd 3c 20 11 e1 3c 7b 60 00 3d 79 1d f0 bc
       0.02313871 0.027473986 0.03134201 -0.029310929
000260 8a 3d dc bd 84 14 ac 3d 10 b4 c1 bb cb f1 80 3d
       -0.10753925 0.084023505 -0.0059113577 0.06296118
000270 49 31 9a bd 17 8c 70 bc e3 59 0e bc 1b c5 d9 3b
       -0.07528932 -0.0146818375 -0.008688423 0.0066458113
000280 3c 36 8d 3d aa c6 65 3d c4 32 87 3d 08 87 2a bb
       0.0689511 0.056097664 0.0660148 -0.0026020426
000290 d1 b7 20 3d 04 35 87 bd 61 72 94 bd ea b3 ef bc
       0.0392378 -0.06601909 -0.072483785 -0.029260594
0002a0 b8 13 a7 bd c0 78 c3 bd 4c cd 3b be 0b 35 2e be
       -0.08158058 -0.095445156 -0.18340033 -0.17012422
0002b0 f3 17 1b be 46 db b0 bd e6 a9 55 bc 1a a7 9c bc
       -0.15145855 -0.08635573 -0.013040995 -0.019122649
0002c0 62 45 f9 3d 9e 8c e1 3d d1 03 35 3e fa 7d 1a 3e
       0.12171437 0.11013149 0.17677237 0.15087119
0002d0 b6 a0 b6 bd 71 97 48 bc 57 89 5c 3b bb b1 99 3d
       -0.08917372 -0.012243138 0.0033651197 0.075046025
0002e0 82 87 81 3d 55 c7 94 bd 4d d9 c6 bd 4e 3a 27 be
       0.06324674 -0.07264582 -0.097094156 -0.16330835
0002f0 5c 86 f3 bd 74 df 66 bd 88 72 cb bd 9e d0 fd bd
       -0.118908614 -0.056365445 -0.099339545 -0.12393306
000300 10 a5 3d be 52 01 5b be e4 b8 17 3d cf ef 23 3e
       -0.18519998 -0.21387222 0.03704156 0.16009448
000310 5b 04 13 bd 40 a1 35 3d d8 b2 60 3e 39 e1 18 3d
       -0.035892826 0.044343233 0.21943223 0.037324164
000320 d3 f1 d4 bc fd 4b ca 3d 77 05 37 3d 7b 44 01 3e
       -0.025994217 0.09877775 0.044682946 0.1262378
000330 0e b5 71 bc 68 28 f9 bc 92 42 7a bd 4d 92 23 3d
       -0.014752639 -0.030414775 -0.061098643 0.039934445
000340 0b 33 3c 3d 87 a1 dc bd 22 f1 8b bd 38 a2 8d 3d
       0.045947116 -0.107729964 -0.06833102 0.069157064
000350 dc cc 8f bd 63 a0 08 bd 36 25 ba bd db 5c 28 be
       -0.07021496 -0.03335608 -0.09089129 -0.16441672
000360 d1 7a 2a be a2 98 3a be 66 13 48 be db 2b 08 be
       -0.16648413 -0.18222287 -0.1953865 -0.1329798
000370 6f 11 b5 bd 46 00 99 bd 4e f6 63 3b 08 d8 3a bd
       -0.08841216 -0.07470755 0.003478426 -0.04561618
000380 4b d6 fc bd 3c e6 26 bb f0 96 94 bd 82 68 c8 3c
       -0.12345561 -0.002546682 -0.072553515 0.024463896
000390 0f 57 26 bd ac 4f 42 3e ef c9 89 3d 28 70 e9 3c
       -0.04061037 0.18975705 0.06727969 0.028495863
0003a0 32 cd 24 be e1 b4 9b bd bf db c9 3d 59 f1 51 3d
       -0.16093901 -0.07602859 0.09856366 0.051255558
0003b0 c3 95 36 3c df 4f 1a be b8 9d b0 bd a3 91 43 be
       0.011144104 -0.15069531 -0.086238325 -0.19098525
0003c0 f5 5c d6 bc 51 7e b1 bd 8b 03 3b 3d 88 8b d3 3c
       -0.026167372 -0.08666671 0.045657676 0.02582337
0003d0 33 84 13 3e 53 d3 d4 3c 3a d5 ea bd 09 f2 8d 3b
       0.14405899 0.025979673 -0.11466451 0.0043318314
0003e0 c4 7a df bc d5 2e ae 3d f0 c6 b3 bc 71 b8 7e 3d
       -0.027280219 0.08505026 -0.021945447 0.062187616
0003f0 fe 77 cc 3d 12 68 3d 3d dc 1f 9f bc 37 01 de bd
       0.09983824 0.046241827 -0.019424371 -0.108400755

fc1.bias f4 [120]
000000 1f e1 22 3d 1d 0e c1 3d 04 09 0f 3d 4f ef f4 3c
       0.039765473 0.0942652 0.034920707 0.029899267
000010 6e 4c 7a bd c8 e1 78 bd 51 5d 37 bc 25 09 17 3a
       -0.061108045 -0.060762197 -0.011191682 0.00057615555
000020 84 17 bd bd c2 31 0b 3d ae a0 66 bb 50 93 2c bc
       -0.09233001 0.033983 -0.0035190987 -0.010533169
000030 70 94 7b 3c e3 9f 94 bc ad 66 41 bb 28 b7 9a 3d
       0.0153552145 -0.018142646 -0.0029510662 0.075544655
000040 78 3e 09 3e 58 b0 04 3d 33 6b be 3c 7c 29 b6 bd
       0.13402736 0.032394737 0.023244476 -0.08894631
000050 1f 60 89 3d 84 79 2f bc 00 15 2b bd 54 80 c0 bc
       0.06707787 -0.010710124 -0.041768074 -0.023498692
000060 e7 74 5f 3c b9 b0 bc 3c 83 0c fc 3c e1 ee 64 3d
       0.013638712 0.023033487 0.030767685 0.055891875
000070 31 12 75 bd c6 18 a4 3d cf 3e 32 bc 76 da ea 3d
       -0.0598318 0.08012538 -0.010879233 0.11467449
000080 5a 5b fc 3a ac c5 3c 3d 46 bb bc bb 20 23 9f 3c
       0.0019253299 0.046086952 -0.0057596294 0.019425929
000090 d5 d9 5e bd 16 4c 92 3c 88 bb df 3c 5f ed d4 3c
       -0.05440696 0.017858546 0.027311102 0.025992094
0000a0 95 d6 c4 3b b7 6c 9f bc 1d a2 88 3d 57 fb 17 bd
       0.0060070255 -0.019461019 0.06671546 -0.03710493
0000b0 bc 4e 43 bd a4 7a 50 3d 96 ff 86 3d 47 45 84 3d
       -0.04768251 0.05089821 0.06591718 0.06458526
0000c0 5e 98 2e bd 27 db 30 3d aa 28 49 bd 78 da 2e bd
       -0.042625777 0.04317775 -0.049111046 -0.042688817
0000d0 ae d3 64 bd f4 aa 07 3d 2a cc 27 3d d0 c9 d8 3c
       -0.055865936 0.033122018 0.04096619 0.02646342
0000e0 3e 16 05 3d 5b 1b af 3d e7 29 0b 3d c5 0d cb 3c
       0.032491915 0.085501395 0.033975508 0.02478684
0000f0 c2 86 95 3d 36 04 74 bd 50 67 fe bc a0 d7 62 3c
       0.07301094 -0.05957433 -0.031055123 0.013845354
000100 f0 38 f9 3c 12 80 93 bc a0 8e 3d 3c 4a 34 85 3d
       0.030422658 -0.018005405 0.011569649 0.06504114
000110 a0 6a bc ba be 7e 9f 3c be af 70 bc ea 23 03 3e
       -0.0014375038 0.019469615 -0.014690338 0.12806669
000120 d5 15 09 3d 0c 62 f7 ba bc 2f 99 3d 7d 2c 15 3d
       0.033468086 -0.0018873825 0.07479808 0.03641938
000130 68 84 6a bd 97 04 4f 3d 82 e1 8b 3d 6f 47 7c bd
       -0.05725518 0.050541487 0.068301216 -0.061591562
000140 51 cf a7 bc 84 f2 56 3d 0d 74 cd bb a8 1f 83 bc
       -0.020484598 0.052477375 -0.006269938 -0.016006306
000150 c5 2c e5 3c ee 77 11 3d 93 8e c3 3d 34 e2 2f 3b
       0.02797545 0.035514764 0.09548678 0.0026837708
000160 0e d3 4a bc 34 79 1c 3d 0b 9f 1c 3d 13 ec c5 bc
       -0.012379421 0.038201526 0.038237613 -0.02416042
000170 d7 a9 dd 3c 80 16 01 3c 25 a2 1b 3c 51 a8 e2 3d
       0.027058525 0.0078789 0.0094991075 0.1106726
000180 69 ee 25 3a 0e f1 17 3d 82 d3 47 bc 7b bf a5 3d
       0.00063297764 0.037095122 -0.0121964235 0.080931626
000190 51 09 2a 3d 7c a5 20 bb 89 ab dc bc 9d b7 3d bd
       0.04151279 -0.00245127 -0.026937263 -0.046317685
0001a0 42 32 c5 bc 4f e8 ba ba bd e8 d0 bc a3 20 e1 3b
       -0.024071816 -0.0014259907 -0.025501603 0.0068703457
0001b0 6e 47 95 bc 51 a2 4b 3b 8e 44 b8 b9 f8 d1 3f 3c
       -0.018222537 0.003107209 -0.00035146292 0.011707775
0001c0 24 0d b3 3d 58 d5 2a 3d 88 f3 18 3c 56 de 3f bc
       0.08742741 0.041707367 0.009335406 -0.011710724
0001d0 3e 3b ba bb 55 74 c5 bb 6d 8e 2d bd 91 29 58 bd
       -0.0056833318 -0.0060258307 -0.042372156 -0.052774016

fc2.weight f4 [48, 120]
000000 24 5f 32 be 17 11 99 bd 8d 82 bc bd a6 1b 3b be
       -0.17419106 -0.07473963 -0.09204588 -0.18272266
000010 d0 18 08 3d a7 20 8e bd 55 0b f0 bc 62 06 57 bd
       0.033226788 -0.06939822 -0.029302279 -0.05249632
000020 99 56 81 3d a7 da bb bd d8 59 7e bd d6 e9 86 bb
       0.06315345 -0.09172564 -0.0620974 -0.004117231
000030 45 02 80 3d 92 ce 2b bc 5b 2e db 3c 48 c7 cf 3d
       0.06250433 -0.010486262 0.026755502 0.10145432
000040 db 34 a1 3d ca f6 1f 3d 2b 04 bc 3d c3 99 dd bd
       0.078714095 0.039053716 0.091804825 -0.10820343
000050 bd 4c 5f bc 86 a7 83 bd c4 c2 22 bd 35 f3 92 bc
       -0.013629136 -0.06428437 -0.039736524 -0.017938236
000060 85 d3 0f be b7 8d 68 bd e9 d6 1d 3d 27 2e bb bc
       -0.14045532 -0.056775775 0.038535032 -0.022849156
000070 f9 b7 1f 3d 29 10 b2 bc f6 76 4c 3d 97 c5 ca 3d
       0.03899381 -0.021736221 0.049918137 0.099009685
000080 b0 38 91 bd f2 24 6e 3d fd 15 f1 bd 8b 43 9c bd
       -0.070908904 0.058140703 -0.11771772 -0.0763007
000090 cf f0 f3 bd 0c 20 a1 bd 79 76 01 3d 70 26 29 bc
       -0.11911165 -0.078674406 0.031607125 -0.010324106
0000a0 f5 12 a0 bd 5b f4 3a 3d 36 f3 93 bd d3 b0 3a bd
       -0.07816116 0.04564319 -0.07224123 -0.04557879
0000b0 a1 0a 9b bd 21 20 ce bd 9f 92 4a 3d c8 08 bd bc
       -0.07570387 -0.10064722 0.049456235 -0.023075476
0000c0 f8 2e 9e bd b8 01 80 bd 4e 79 88 bd 3c 33 91 bc
       -0.07723802 -0.06250328 -0.06663762 -0.017724626
0000d0 89 66 3d be 2b da a4 3d cf e4 08 3d aa 3b 70 3d
       -0.18496145 0.08049425 0.033421334 0.05865065
0000e0 fd 4b 78 3d 04 d4 9b 3d 7e d4 7b bc bb 28 ef bc
       0.060619343 0.07608798 -0.015370486 -0.029194226
0000f0 e6 4b 34 bd f7 0e 16 be df 0f 06 bd 27 8f 1a 3d
       -0.044017695 -0.14654146 -0.03272998 0.037734177
000100 8a 4f 20 3d 2e 9c d4 bc 8c e5 8c bc c0 86 20 bd
       0.039138354 -0.025953379 -0.0171993 -0.039191008
000110 f7 a4 28 bd 2d 5b 27 bd 31 e2 bc 3c df 6e 03 3d
       -0.041172948 -0.040858436 0.023057075 0.032088157
000120 6e d2 4b bd 55 fd 43 bc 43 6a 07 3c 32 38 1c 3c
       -0.04976123 -0.0119622545 0.008265081 0.009534882
000130 ac 23 1a bd 59 a1 67 3d 5e 43 c2 bd 01 f9 d0 3d
       -0.037631676 0.056550357 -0.094855055 0.10203744
000140 c3 ec 09 3d 43 ef 87 bd 18 2f 42 bd 8f d9 94 bc
       0.03367306 -0.066374324 -0.047408193 -0.018170146
000150 4b d4 b8 bd 34 32 94 bc ce 31 e4 3d 15 2d 21 3d
       -0.09024867 -0.018090345 0.11142312 0.039349634
000160 53 a3 7c 3d 8f ff 44 3d de 11 c2 bd 6e 53 91 3c
       0.061679196 0.048095282 -0.09476064 0.017739978
000170 d0 8a db bc 2b 8c 24 3c a0 83 50 bd b8 dd 1c 3d
       -0.02679959 0.010043184 -0.050906777 0.038297385
000180 b8 f6 b1 3b 8e df 0e bd 47 ed b6 3b 38 ec 08 3d
       0.0054310225 -0.034881167 0.005582485 0.0334284
000190 f2 c0 96 3b 73 17 64 3d 52 2b 26 3d ff b6 b4 bc
       0.0046006376 0.055686425 0.040568657 -0.022059916
0001a0 54 af dd bd 71 d8 05 3d 45 64 df 3d b1 5c 84 bd
       -0.10824457 0.032677118 0.10907797 -0.06462992
0001b0 af ab 82 bd d1 b4 a8 3d bb 5e 90 bd 87 58 a5 3d
       -0.06380402 0.08237613 -0.070493184 0.08073526
0001c0 46 79 0c 3e a1 35 00 bd 6b 25 4a 3d ba 34 81 3a
       0.13718137 -0.031301145 0.04935209 0.0009857633
0001d0 26 e2 38 bd bd 0e a3 bd 30 75 8f bd f3 d1 ae bd
       -0.045137547 -0.079617955 -0.070047736 -0.085361384
0001e0 6c 8e 08 bd d1 14 23 3e fd 75 b3 3d 57 1f 1d be
       -0.03333895 0.1592591 0.08762739 -0.15343986
0001f0 40 c0 c1 3c 2e 66 bc 3e f3 b1 e1 3c 82 5a 13 3d
       0.023651242 0.36796707 0.027550673 0.035974987
000200 bc f4 95 3d 29 85 07 3d a3 05 37 be 4e e0 19 3e
       0.0732207 0.033085976 -0.17873244 0.15026972
000210 64 90 f3 3d 8c 7f 67 3e 40 59 df bd 5f f4 2a bc
       0.11892775 0.22607249 -0.10905695 -0.010434239
000220 91 16 36 be 73 9d ae bd 27 31 6e bd 67 db ca 3d
       -0.17782046 -0.08526125 -0.058152344 0.09905129
000230 bb 0a 84 3d 01 a7 ff 3d ad be 7a be fa ec 74 bc
       0.06447359 0.12483025 -0.244868 -0.014949078
000240 3a 8a e1 bd eb 95 f8 bc 64 84 66 3e 9b 75 0b be
       -0.11012693 -0.030344924 0.2251144 -0.13619082
000250 7a 3a 32 3e d6 c6 d4 3c e4 0a 02 be 68 5c d0 3c
       0.1740512 0.025973719 -0.12699467 0.025434688
000260 fb 63 fa 3d 92 a3 61 be f9 7e b1 3d 08 cd 3a 3e
       0.12226101 -0.22035053 0.08666796 0.18242276
000270 dc 97 ad 3d b2 44 5a 3d e3 c4 58 bc ba be ca bd
       0.084762305 0.05328817 -0.013230535 -0.098996595
000280 dc 5d f5 bb f0 18 e5 bd 78 aa 12 be ef a6 bb 3a
       -0.0074879956 -0.11186397 -0.14322841 0.0014316718
000290 3e 78 11 bd 7a 18 67 bd e1 7d ae bd 99 78 f2 bd
       -0.035515063 -0.056419827 -0.08520103 -0.118394084
0002a0 0e 18 05 be d7 37 8b bd bd 1d a0 3d f6 93 d4 bc
       -0.12997457 -0.0679776 0.07818172 -0.02594946
0002b0 3e 37 df bd d1 7d 36 3e 0e 74 43 3d 74 fc b8 bd
       -0.108992085 0.17821433 0.0477181 -0.090325266
0002c0 83 47 7a 3e 5a a3 c1 3d 52 c4 93 3e c8 3b 94 3d
       0.24441342 0.09454985 0.28860718 0.07237965
0002d0 2e 1e 10 be 08 93 42 be d3 9c ec 3d f1 09 cc bd
       -0.14074013 -0.190014 0.11553349 -0.09962834
0002e0 06 74 5b 3d ee 62 29 be e9 9f 60 be ed 42 82 3c
       0.053577445 -0.16541645 -0.21936001 0.015901053
0002f0 35 c2 01 be 6c da ad 3d 2a b4 8a be 88 16 9a bb
       -0.1267174 0.08488926 -0.2709058 -0.004702393
000300 af 50 9b bc 6b d0 8f 3c 69 60 c6 bb 3e e6 b5 3d
       -0.018959371 0.017555436 -0.0060539735 0.08881806
000310 d7 8e c7 3a ec ea a9 3d 02 f5 08 be 52 49 28 be
       0.0015225065 0.08296761 -0.13374713 -0.1643422
000320 47 5a 1b bd ad a9 77 3b b6 43 0a bd e5 fa c2 3e
       -0.037927892 0.0037790344 -0.03375598 0.38082042
000330 1a 45 fd bc 6a f6 ab 3d 3d 26 5a 3b 13 31 63 3c
       -0.03091674 0.08396609 0.0033286952 0.013866681
000340 4a e5 ca 3d 0e c5 60 3d 2a 0c 85 3e fa db 55 3e
       0.09907015 0.054875426 0.25985843 0.20884696
000350 b0 b5 5a 3e f9 6d d7 bc 23 54 ed b9 fc df 3d 3d
       0.21358371 -0.026297556 -0.0004526685 0.046356186
000360 39 df fa bd 39 dc 1b be fe fb 3f be cf 7a 64 be
       -0.122496076 -0.15220727 -0.18748471 -0.22312473
000370 2e 75 7a be a3 61 b2 3d 6a d2 53 bd 07 6d e4 bd
       -0.24458763 0.08710029 -0.05171434 -0.11153608
000380 a1 1b 25 3d ce 15 b8 3d 5e 7d 50 3e f9 e5 9a bd
       0.040309552 0.08988534 0.20360324 -0.07563395
000390 04 26 1d be 32 6d ce 3d bc bf 04 be bc 59 07 be
       -0.15346533 0.10079421 -0.12963766 -0.13217825
0003a0 b5 87 6f be 88 57 83 bd 26 ef b2 bd 8e 4d 8f 3d
       -0.23391612 -0.0641318 -0.0873702 0.06997214
0003b0 2a ed 11 be 4f eb 90 3d 9e 93 c2 bd 0a fa 48 3e
       -0.14250627 0.070761316 -0.09500812 0.19626632
0003c0 5c af 18 bd a0 2a d5 bd 8e 12 ae 3d 4d c7 d6 bd
       -0.03727661 -0.10408521 0.08499633 -0.10487232
0003d0 ce 07 cb bd 9d 8f 6e 3b eb 66 3d bd a0 ec 9d bc
       -0.09913598 0.0036401518 -0.04624073 -0.01927787
0003e0 d9 9c 10 3e 1e ae 9a 3c 03 21 32 3d fb 47 42 bb
       0.14122333 0.018881854 0.043488514 -0.0029644954
0003f0 57 cd 8c bb 19 ef 12 bd c0 f4 a0 bc 3d 40 b6 bd
       -0.0042969394 -0.035872553 -0.019647956 -0.08898971

fc2.bias f4 [48]
000000 76 48 8b bd 32 9e c9 3b 3e a5 79 bc 62 71 3a be
       -0.0680093 0.0061528916 -0.015237151 -0.18207315
000010 5a 85 89 3e 5a 52 39 3e c2 2e 66 bc 40 31 da 3d
       0.26859552 0.18097821 -0.014049234 0.10653925
000020 2a 77 83 bd ba 8e 98 3c fe 30 55 3d c7 66 0f 3e
       -0.06419213 0.018622745 0.052048676 0.1400405
000030 2d 8c d8 bd 5b 5d 34 3e 19 21 2f bc 54 70 74 3e
       -0.105736114 0.17613737 -0.010689043 0.23870975
000040 29 45 3a bd 35 36 cb 3d 09 6b cd 3d de 3f cf 3d
       -0.045476113 0.099224485 0.10030181 0.101196036
000050 31 4a b1 bd fe b9 22 3e bc f1 c8 bb fd 8d c3 bd
       -0.08656729 0.15891263 -0.0061323326 -0.095485665
000060 fe b9 05 bd fc 6c 7c 39 6b 6e c5 3d ec f6 7d 3d
       -0.03264808 0.00024073193 0.09640201 0.06200306
000070 e8 71 46 3e e7 03 b5 bd fb 3b b0 bd 55 e7 84 3a
       0.1937939 -0.08838635 -0.0860519 0.0010139743
000080 1e a7 fa bc 57 e0 2b 3c e3 39 47 bd 3b 48 5e bd
       -0.030597266 0.0104904985 -0.04863919 -0.054268103
000090 bb 21 cb bc 43 f8 fc bc 79 85 b7 bd 92 75 96 3e
       -0.024796357 -0.0308801 -0.08961005 0.29386574
0000a0 5c a7 6e 3d 4d 42 95 bd 14 f5 83 3d c8 24 b9 bd
       0.058265075 -0.072880365 0.06443229 -0.090402186
0000b0 f3 ec 85 bd eb ae 63 3d 7d e6 12 3d db af 48 3e
       -0.06539335 0.055586737 0.035864342 0.19598334

fc3.weight f4 [24, 48]
000000 9c 48 5c 3d b4 38 07 be ad 15 92 3d 05 8d a8 3c
       0.053780183 -0.13205224 0.071330406 0.020575056
000010 c6 ee d3 bd 48 e2 91 3d 67 e0 1c 3f 13 a0 95 be
       -0.10348277 0.07123238 0.6127991 -0.2922369
000020 26 0a 31 be de c6 da 3c 11 a5 33 be c3 ee 0d 3f
       -0.17289028 0.026706155 -0.17543437 0.55442446
000030 38 82 be 3e 2b 4b 1d 3c 7e 23 aa bd 21 ec 8a bd
       0.37208724 0.009600441 -0.08307551 -0.06783319
000040 cc 42 cd 3d 54 73 f6 3e 48 bc 05 3d 7d b9 99 be
       0.10022506 0.48134863 0.032650262 -0.3002433
000050 b0 3f 86 be e0 88 53 be bb 0e d0 3d 10 a2 fb bd
       -0.26220465 -0.20657682 0.101590596 -0.1228677
000060 c1 d0 71 bb 30 98 04 be 81 0d 74 3d 7f e1 84 be
       -0.0036898109 -0.1294868 0.05958319 -0.2595329
000070 88 a8 ab 3e f8 9a ab 3e 3e cd 8e be 22 d4 da 3c
       0.33527017 0.3351667 -0.27890962 0.026712481
000080 cd 29 48 3c 22 f4 d7 bd 46 b1 02 be 21 6f 15 be
       0.012216997 -0.105446115 -0.12762937 -0.14593174
000090 6b e6 b8 3e 2e c3 45 3e cd 5e e8 bd 64 a2 aa be
       0.36113295 0.19312736 -0.11346207 -0.3332702
0000a0 ef 36 4b 3e a4 6b 4d 3d b7 9b a0 bd 68 bf 43 bd
       0.19845174 0.050151482 -0.078422 -0.04778996
0000b0 74 2a 78 be 29 c8 f0 bd 1f 46 23 bd 21 c9 f2 be
       -0.24234945 -0.117569275 -0.039861795 -0.47419074
0000c0 8b 24 32 3e b5 df 79 be ea 2f b0 bd 91 41 9b bd
       0.17396753 -0.24401744 -0.08602889 -0.07580865
0000d0 e4 2f 2c 3d 4c 5e e6 3e 23 7a 52 be a7 5a ae be
       0.04203786 0.44993818 -0.20554404 -0.34053537
0000e0 28 04 ed bd 18 9b 9c 3e 18 57 9a 3e 91 1c 40 3d
       -0.11573058 0.30587077 0.30144572 0.046902243
0000f0 f2 2f 15 be f0 4c 11 3f c3 9e 4f be 30 22 c5 3e
       -0.14569071 0.5675802 -0.20275407 0.38502645
000100 5d 95 4e be 57 af b1 be 23 05 0c bd 38 fe 61 be
       -0.20174165 -0.34704086 -0.034184586 -0.22069633
000110 05 13 32 3e 57 0b 98 bd b1 77 38 be 77 5b bd bd
       0.17390068 -0.07424038 -0.18014409 -0.09245961
000120 a0 d5 69 3d d8 b7 ec bd bb cf 0d be 25 d6 e8 be
       0.057088494 -0.11558503 -0.13848774 -0.4547588
000130 7b aa ea 3d 28 6d 0e bd 56 29 ae 3e 1d 63 20 3e
       0.11458298 -0.03477207 0.34015912 0.15662809
000140 72 4d d0 3d 75 1d e4 bd 0b 1a 99 bc a7 4d 88 bd
       0.101710215 -0.11138431 -0.018689176 -0.06655436
000150 e1 33 a3 be 5c fa bb bd 1d af d2 bd 89 2d 10 3e
       -0.31875518 -0.09178612 -0.102873065 0.1407987
000160 7f b1 e9 bc 10 b4 03 bd 60 e9 16 3e 83 2d b5 3d
       -0.02852702 -0.032154143 0.14737463 0.08846571
000170 98 94 22 be 14 0f fc 3d 93 29 50 be 11 44 fb 3e
       -0.15876997 0.123075634 -0.2032836 0.49075368
000180 89 aa b3 3d 3b ad 78 3d 25 cd cd bd eb d7 74 3e
       0.087727614 0.06071208 -0.10048894 0.23910491
000190 84 ad 7b be 75 25 e3 3d 4e 0c 0b be 3a e9 9e 3d
       -0.2457791 0.11091129 -0.13578913 0.07759328
0001a0 09 14 f1 3e 66 c7 74 3e dc 2c 65 be 79 f3 90 be
       0.47085598 0.2390419 -0.22380394 -0.28310755
0001b0 bb 29 cf 3d bd 00 88 3d 10 c6 18 b9 a8 d8 b7 3e
       0.10115381 0.06640766 -0.00014569634 0.35907483
0001c0 7f 90 e9 be 2f 58 8e be a2 f3 e7 3d cf fe 13 be
       -0.45618054 -0.27801654 0.11325766 -0.1445267
0001d0 76 ed 84 bc 51 68 3e 3e 43 fd c9 3d 82 94 8d bd
       -0.016226511 0.18594481 0.09862759 -0.06913091
0001e0 0c 64 3b 3c ee 6e 89 3d e8 4c 8e 3e 8f 74 2d 3d
       0.011437427 0.06710611 0.2779305 0.042347487
0001f0 21 77 31 be 48 f7 cb 3e 7c 21 a6 3e 7c f1 b0 bd
       -0.173306 0.39837098 0.32447422 -0.086398095
000200 ad 67 4d be f2 92 99 bd fd 2e fa 3b f0 48 03 3f
       -0.2005908 -0.07498731 0.007634996 0.5128317
000210 ed 2a dc 3e e2 f6 32 be 3d 70 7b bd f8 10 fe bd
       0.430015 -0.17476991 -0.061386336 -0.1240558
000220 09 85 7c 3d 04 a3 db 3e ae 62 23 be 36 bf 8b 3d
       0.06165031 0.4289781 -0.15955612 0.0682358
000230 c2 d0 8b be f9 16 49 be 21 5e 6a be a2 8d e2 be
       -0.27307707 -0.1963767 -0.2288747 -0.44248682
000240 f1 41 01 3e 2f 62 34 be 18 66 cb bd c8 c9 96 bc
       0.12622811 -0.17615579 -0.09931582 -0.018406764
000250 76 da 5d be ed 14 0c 3e 18 79 94 3d e0 fd 09 bd
       -0.21665367 0.13679858 0.07249659 -0.03368938
000260 65 28 14 be e1 0e 5f 3e 1b c5 0b be c2 20 26 be
       -0.14468534 0.2178302 -0.13649409 -0.16223434
000270 9a fe bd 3c 42 87 23 3f ab 74 1e 3e c9 96 01 be
       0.023192693 0.6387826 0.15474193 -0.12655176
000280 72 9e d5 bd f2 94 72 3e 07 96 e2 3d c2 84 c4 3c
       -0.10430612 0.2368963 0.11063772 0.023989085
000290 33 fb 3c 3d c7 0a 49 3d 35 3b d5 3c 04 7c d0 3e
       0.046138 0.049082544 0.026029209 0.40719616
0002a0 bd ac 33 be cd 7a 35 be 7d 2c 01 be 3d b2 e3 3d
       -0.17546363 -0.17722626 -0.12614627 0.11117981
0002b0 51 9a 7f bd 69 5d ae 3e 57 5b 14 3e b9 81 0d 3e
       -0.062403027 0.3405564 0.14487968 0.13819017
0002c0 32 05 5b 3e 0b d4 12 be 03 28 c3 3e 27 e8 1b be
       0.213887 -0.143387 0.38116464 -0.15225278
0002d0 3d 0c ed bd de 04 5c bd 08 2a d3 bd b8 0a 21 3f
       -0.115746 -0.05371558 -0.10310751 0.6290698
0002e0 96 7c 3e be 9d 1a f8 bc 70 c8 80 be c9 f3 9c 3d
       -0.18602213 -0.030286128 -0.25152922 0.07663686
0002f0 5e b5 ef 3e 84 d4 85 bd 77 53 cc 3e 7e 6b 4e be
       0.4681806 -0.06534675 0.3990743 -0.20158193
000300 8a 15 2e 3d 9a 40 0f be fe f6 9b 3c f2 63 8c be
       0.04250101 -0.13989487 0.019038673 -0.27420002
000310 21 c6 69 be 79 47 ab 3e ef f1 70 bc 90 17 f2 3d
       -0.22829486 0.33452967 -0.014706119 0.118209004
000320 00 39 99 3d 74 1a 00 3e 0e b7 de bd 2b 56 9a 3e
       0.07481575 0.12510091 -0.10874759 0.30143866
000330 c2 20 3c bb 2c 4f bb 3e 60 0d 32 be cf a0 8c 3e
       -0.0028706049 0.3658384 -0.17387915 0.27466437
000340 20 51 78 3e b5 d5 e0 3e 59 6f 51 3d 1a de b9 bd
       0.24249697 0.43913046 0.05113158 -0.09075566
000350 e7 33 3f 3c 1f 90 13 bd 61 32 2b 3e c4 ad 77 3c
       0.011670089 -0.036026116 0.16718437 0.015117113
000360 59 6a bb bd 89 cf 37 3e 68 ed 2c bd 09 c7 d3 be
       -0.091511436 0.17950262 -0.042218596 -0.4136279
000370 f4 40 57 be ef 7a 9b 3e cb 95 12 3e 09 73 73 3d
       -0.21020871 0.30367228 0.14314954 0.059435878
000380 ef 8c 1e 3e 87 1b 4d 3e de 61 90 bd 95 42 46 be
       0.1548345 0.20030032 -0.07049917 -0.19361337
000390 f4 13 8c 3d af c2 c1 3e db bd 1b 3e ba 67 44 be
       0.06839743 0.37843844 0.15209143 -0.19180194
0003a0 ad 66 94 be c5 f3 2e 3e 23 dc b7 3d 2e 98 c9 3d
       -0.28984585 0.17085178 0.089775346 0.09843479
0003b0 13 59 c5 be 6f 41 7f bd 8f 7a 76 be d6 ab 78 be
       -0.3854452 -0.06231826 -0.2407019 -0.242843
0003c0 5b 4b b3 3d 12 50 0c 3e 7d 86 c5 3d 68 cf 7a be
       0.08754607 0.1370242 0.09644792 -0.24493182
0003d0 97 63 c8 bd 6b f3 72 be 43 23 1c 3c 43 33 53 3e
       -0.0978462 -0.23725669 0.009529891 0.20625024
0003e0 2c 05 f0 3e ff 33 0e be 05 ab bb be c2 0c 82 bd
       0.46878946 -0.13887022 -0.36653915 -0.063500896
0003f0 8a f7 31 3d 4f 3e 14 bd 38 f4 23 bd fe de 18 3f
       0.043448962 -0.036192235 -0.040027827 0.5971526

fc3.bias f4 [24]
000000 5b cf 25 bd e4 0f c9 3e e7 38 f7 be 62 73 0f bc
       -0.040480953 0.39269936 -0.482856 -0.008755537
000010 9c ae 75 3d ac 35 42 3e 0e 3d 3f 3c d5 ed f3 3d
       0.059980974 0.18965787 0.011672271 0.11910597
000020 60 5b 3c 3e 28 e6 4e be 37 17 ab 3d 46 ea 3c 3c
       0.18394232 -0.20204985 0.08354037 0.0115304645
000030 82 f1 cc bc 93 82 3f bd 39 1c 2b be 29 7c d4 be
       -0.025017504 -0.046755385 -0.16709985 -0.41500977
000040 ec 49 3e 3e 12 e8 d8 3d 62 ad 60 3e e2 82 c1 3e
       0.18582886 0.10591139 0.2194114 0.37795168
000050 a7 d6 c8 bb 11 01 ab 3e 6d c2 92 be b9 15 c2 3d
       -0.006129104 0.3339925 -0.2866396 0.094767995
